datasets/dqn_snake.pth (torch, 17905 bytes, 4 tensors)

model.0.weight f4 [256, 11]
00000000: 821e 8b3d 6627 d83c 7bf2 9e3e db57 fe3e
00000010: bc9d b2be 1827 84be 7993 76bf d0e4 ba3c
00000020: 0715 5f3f 109f 58bf fac2 15bf 3a85 703f
00000030: 8df7 34bf 8166 febe 5596 0c3e 872c 133f
00000040: b0e4 b6bc 012f 57bf b67e 153e 2d08 ecbe
00000050: 3e04 013c 4174 173e ee9a 9f3d adc7 063f
00000060: 8138 ecbc dae3 bb3e 41ff cabd 8f71 a5be
00000070: bb8f 803d e813 a0be c6af aa3e 022f 593e
00000080: 702f 853e 2d88 453e b117 0e3f b322 1b3e
00000090: 50be b7be 7265 1d3d 25b9 a1be 16e8 083f
000000a0: 5bfd 7d3e 6add 78bf f059 43bd bbf9 b73e
000000b0: 7b01 c03e cf82 903f 5001 7b3e 2354 133f
000000c0: 5aed 92bd dc32 6f3e d09a 22be 944f 403e
000000d0: fba6 9abe 4efe 19bf fe7b 03be 11cc 5f3e
000000e0: 0b50 833e a40d 9b3f 57a8 5cbe 5596 813e
000000f0: b887 a53e 3c28 48bf 9fb0 393d 6ce5 53be
00000100: 115b 83be 64b0 903e 9571 5b3e a494 483e
00000110: 1245 8c3e 3ced b2bd 20e6 abbe b1c3 babd
00000120: b36e 06bf a163 7ebd 89e7 2bbf 7857 183e
00000130: 8cf5 973d b0d4 253e c4f4 11be 597c 303e
00000140: 747d 623e 2507 17be adf1 0dbf f5b1 643d
00000150: d1c4 88be a009 fd3e 416a 74bf 63b1 0e3f
00000160: 6f19 a43e 8498 9d3e 5502 933e d543 80bf
00000170: 7a3d 263e f585 e0bd 098f 12bc 8554 953e
00000180: 33f1 113f 646a f13d e635 04bf bb2b 3d3e
00000190: cc7a 3cbe aa93 d93c ba1e b9be a71d 98be
000001a0: b817 113f 6597 1b3e 75aa b53e 556d 1e3f
000001b0: 9b6c 1abf f39a acbe b73b 38be 34aa d93b
000001c0: c897 89be e183 71be 0e5b 12be 7e55 05bd
000001d0: caef 5bbe 7d43 86be cf44 23be 940b e7bd
000001e0: 3203 92be 21ac 20be 008a 7a3d c520 c6bd
000001f0: 1977 0b3f 877c c2be 8d73 18bf 2f5d f0bc
00000200: 5f07 a7be 8979 cd3e eb3a 433f 46b7 19bf
00000210: 5326 9f3f ef60 dcbe d051 87bf 22a8 c0be
00000220: b055 15be eac1 45bf 5c66 71bf f0cc 80bd
00000230: a642 bebd 6000 1a3f fa56 0abf cc38 453e
00000240: 0e0e e9be 015b 60bf a693 05bf 20fe 04be
00000250: e0a4 503e b0c3 c33d 739c 013f b20b a7be
00000260: 618c 003f 1953 e6be abbb 993e c5f3 673f
00000270: 6f1e 13be fbfb 8ebd 1eed e7bd a166 713e
00000280: 7f8d d23d 777a 573d 7f94 0ebf f4cf d43e
00000290: 60c3 c9be 7644 913e 01db 2dbe 5a81 34bd
000002a0: c666 15be 9ced 943e 16e3 0ebf b6c1 fb3d
000002b0: 9a56 b83e d167 c2be 34ec fc3e 9be0 8bbc
000002c0: 7a8d 93be 486c 3dbf ec99 893e db08 743d
000002d0: eb18 d93e 4d9c 48be 2f87 02bf 7687 b93e
000002e0: bc1f 2bbe d122 183e bf72 913e f72d ea3d
000002f0: 2361 a0be fa9b 16be 8a6e 1d3c 405d 113f
00000300: d810 07bf eb0b ab3d 727e f2be 5345 2b3f
00000310: e843 7c3e 9c56 31bf 2080 25bf ea4f 74bf
00000320: b063 b5bd 0582 723e 942c 2fbe bfea 69bf
00000330: 135a 343c ee17 153f 947b 6b3e b90a dd3d
00000340: ac04 d5be b1f2 623e ee99 383e c04b 9b3e
00000350: 251c 6d3e b146 9fbe 3bce be3e 6358 08bf
00000360: 2e53 39be 0dea 123e 5c07 143f a3e1 413e
00000370: db00 e13e 354f 5fbd 050f 7bbe ec86 973e
00000380: 5209 a2be 5c51 953e 354e 1b3e e4da c2be
00000390: 721a 213e 75c8 c5be f799 8abe 5d18 c33e
000003a0: 7e23 753e 2cf2 f3be b68c 95bf 4233 bcbc
000003b0: f2b1 453e 004e 51bd 72f6 ab3e 7543 4e3e
000003c0: 576e 04bf acb0 ea3d 1d03 b9be cfbc e4be
000003d0: 0c6f c23e 10f3 84be d492 a4be f340 303e
000003e0: c9a2 85be 10f0 0abf ba2a 2ebe 1cd8 e1bd
000003f0: f1fa 40be 09ef 3d3f 3a21 0fbf fc39 3abf
0.06792928 0.026385974 0.31044373 0.49676403 -0.34885967 -0.25811076 -0.96318775 0.022814184
0.8714146 -0.8461771 -0.58500636 0.9395329 -0.7069023 -0.4968758 0.13729222 0.5748982
-0.022325844 -0.840561 0.14599118 -0.46099988 0.007874547 0.14790441 0.07793222 0.5264843
-0.028835537 0.36697274 -0.09911967 -0.323132 0.062774144 -0.31265187 0.3333723 0.21209338
0.26012754 0.19290228 0.555049 0.15149955 -0.35887384 0.038426824 -0.31586567 0.53479135
0.24803679 -0.9721285 -0.047693193 0.35932717 0.3750113 1.128992 0.2451222 0.5755026
-0.071741775 0.23359245 -0.15879369 0.18780357 -0.3020552 -0.60153663 -0.12840268 0.21855189
0.25647005 1.2113538 -0.21548592 0.25310007 0.32330108 -0.7818639 0.045334455 -0.20692986
-0.25655416 0.28259575 0.21430047 0.19587952 0.27396446 -0.08736655 -0.3357401 -0.091193564
-0.52512664 -0.062106732 -0.6715017 0.14877117 0.07419881 0.16194415 -0.14253527 0.17234935
0.22118169 -0.14748819 -0.5544689 0.055833776 -0.2671266 0.49421406 -0.9547463 0.5573942
0.32050654 0.30780423 0.28712717 -1.0020701 0.16234389 -0.1096305 -0.008945235 0.29166046
0.57008666 0.117878705 -0.5164474 0.18473713 -0.18406218 0.02655967 -0.36156255 -0.29710123
0.56676817 0.15194471 0.3548161 0.6188558 -0.6032197 -0.33711967 -0.1799153 0.0066426042
-0.26873612 -0.23585464 -0.14292547 -0.032552235 -0.21478191 -0.26223364 -0.15944217 -0.11281505
-0.28518063 -0.15690662 0.061166763 -0.09674219 0.54478604 -0.37985632 -0.59551316 -0.029341308
-0.3262281 0.40131786 0.76261777 -0.6004528 1.2433571 -0.43042704 -1.0571842 -0.37628275
-0.14583468 -0.77249014 -0.94296813 -0.06289089 -0.09290056 0.6015682 -0.54038966 0.19259948
-0.45518535 -0.8763886 -0.5217842 -0.12987566 0.20375395 0.09558809 0.5062935 -0.3262611
0.502142 -0.44985273 0.30025992 0.9060634 -0.14367078 -0.06981655 -0.113245234 0.23574306
0.102808945 0.052607026 -0.5569534 0.41564906 -0.39406872 0.28372544 -0.16978075 -0.04406867
-0.14589986 0.29087532 -0.55815256 0.12292807 0.36003572 -0.3796983 0.4939896 -0.017074874
-0.28818876 -0.7399335 0.26875246 0.059578758 0.42401823 -0.19590874 -0.50987524 0.3623616
-0.16711324 0.14857031 0.28407857 0.11434548 -0.3132411 -0.14707938 0.009608874 0.56782913
-0.52760077 0.083518825 -0.47362095 0.66902655 0.24635279 -0.6927278 -0.6464863 -0.9543444
-0.088569045 0.23682411 -0.17106849 -0.9137382 0.0110078035 0.5823964 0.2299636 0.10793061
-0.41605127 0.22162892 0.1802747 0.3033123 0.23155268 -0.3110862 0.37266716 -0.5325987
-0.18098137 0.14347096 0.5782373 0.1893373 0.43945965 -0.054518897 -0.24517448 0.29595125
-0.31647736 0.29163635 0.15166552 -0.38057625 0.15732744 -0.386295 -0.2707059 0.38104525
0.2393932 -0.476457 -1.1683567 -0.02297366 0.19306162 -0.051099777 0.3358646 0.2014292
-0.51730865 0.11459479 -0.36135188 -0.446753 0.37975347 -0.25966692 -0.3214327 0.17212276
-0.26100758 -0.54272556 -0.17008486 -0.11027548 -0.18845727 0.74192864 -0.55910075 -0.7274473

model.0.bias f4 [256]
00000000: 4d52 0b3e 0964 aabb 6fe5 4dbd be1a 993c
00000010: 90d9 8dbd 0ad1 9cbe da61 0ebe b546 e0bd
00000020: 2850 23bd dce0 b83c 67dc ff3d a991 cfbd
00000030: ea09 b1be da1b ab3b fcdd 0abe 21c6 27be
00000040: a90b aebd 3de0 3fbd 4cde 5c3d 7c18 a2be
00000050: 9849 61ba a037 d5bc 300d f4bc f9b3 76bd
00000060: 6576 e6bd e7d5 6ebe d2fe da3d ad58 48bd
00000070: e0f1 543e f021 8dbd 9bf1 e7bd 4932 cbbd
00000080: 992c bfbe 59c3 d83e aa1f 8d3e 3526 313f
00000090: 214f 01bc 3927 16be 4800 7abe 158b e5bd
000000a0: 0f56 bbbd c54e 3a3e 2c26 19bd 292a a23d
000000b0: c1c1 c7bd e756 81bc 0276 e6bc 0ee1 2e3e
000000c0: 1492 75be 4a70 33be 7463 553e 3b40 2cbc
000000d0: ca7b 73be 778b e1bd 2b09 9cbd 905d babd
000000e0: 9138 25be e906 c5be eac2 11bf 826f ba3c
000000f0: b22c 42be 89fc b4bd 00dc 71bc 58cf 21bd
00000100: aac0 71be 44b8 fabd f740 82be 1edf 11be
00000110: e0df b8be 67eb 99be ee3e 473e 76a1 9dbe
00000120: 5f1e 09bf a85f a6bc ec37 ab3e fcb3 98be
00000130: 0765 053e 2918 14be dfc3 9c3e fdc3 5dbe
00000140: d2a4 923e 87cf d53d a45b 56be 9d00 ea3d
00000150: da2f 393e e0f4 81bd fd73 41be 958c 003e
00000160: e501 673d 26ba 873e a323 d0bd 32e9 e9bd
00000170: 3d0b 23be 9101 90be 82ae 9bbe c7c6 3abf
00000180: 8d56 3b3c 18af 2d3f e1dc 253e ab3d 6bbe
00000190: 6104 eabb f351 ef3e 500a e9be 2e6a 6abe
000001a0: a751 6a3e c050 103d 7647 a93d 0b2f 8bbe
000001b0: 43db 1d3e dfea f4be 4fea 01bf c242 c33d
000001c0: 44a8 25be 5b1f 3a3e 2cea 90be 4337 a1be
000001d0: 1117 2bbe c274 433e 8632 acbe fcce c73e
000001e0: 4a4b 3dbe 47ba 4cbe e4ab 68bc c7c4 3a3d
000001f0: 394f 8e3d 66a5 a8be 9159 5cbe 6ab0 9fbd
00000200: f9bf 323d edf5 41be 7ef2 813d 20a8 fc3e
00000210: b3b1 8d3e d0a1 033f f379 2f3f 35f8 58be
00000220: 14d8 30be 8b0f 4fbd 7854 88be 885d a6be
00000230: 8724 94be 1297 053e cb9e a13d a140 f1be
00000240: 2e29 e9be 9f28 603e 600e 943e b742 7ebd
00000250: b623 65be f7f6 edbd f905 a33d 4c24 9abd
00000260: 19a2 083e d3f3 acbe 079f 523f 6622 673c
00000270: f9d4 a8be 12f9 0b3d a273 943e 28f5 043d
00000280: 41c1 7bbe b335 5a3e 8658 713b f952 813e
00000290: 0755 96bd 2e07 debe 5391 f1bd 2a82 86be
000002a0: 4a00 82be 31db 8ebe 292e d33d b3d7 7fbe
000002b0: 9cf0 a73d b828 9fbe f3e7 8e3e de67 afbd
000002c0: c638 5c3e 9c43 cbbe 1697 9c3c 9cb2 0f3e
000002d0: 2918 26be a873 81be df80 a8be a18d 00bf
000002e0: e0f5 4dbe ad8b 35be 0ad1 063e 0242 863e
000002f0: e2f4 22be 53b8 9dbe efbe aebe b6d1 d83b
00000300: e81c ff3e 1d02 dd3d 1a26 47be 53f9 6ebd
00000310: e3f5 503d 3ad5 37be 3fe5 a3be 5f91 37bc
00000320: 684b 80bd c880 b1be 3b18 09bd 5092 e2be
00000330: 4ba2 9f3e 6364 323e cccb 3dbc 40f1 9dbd
00000340: 8452 d23d f97e 80bd a335 febd c8c9 f73d
00000350: 1cad a33d 1d56 953e 0e59 74be 155b 1fbe
00000360: 8825 d0be 8b27 873b e70d 03be df0c 523d
00000370: ba1f babc 0b96 b63e 7695 963d 8002 c4bd
00000380: 0c88 8bbe c6bf a73e cdcf acbe 9f4a e7bc
00000390: 8e5e c43d 78d6 943d d50e 80be 194d d3bc
000003a0: 4413 8abd 98c8 d53e d19c ee3e 3a2b 90be
000003b0: 09ae 2a3d a8f8 a9be 0850 f2be c8f2 98ba
000003c0: 1ef1 77be c9b3 fe3c 88fd e9bd a4c9 87be
000003d0: 1906 cabd 61cb fd3c 2022 243e 8d3c 433e
000003e0: 587f 5cbe bdc5 c2be 1b6b c7bd e6af 933d
000003f0: 5519 913c a1c3 c1bd 2012 84be f307 ba3d
0.13605614 -0.0051999134 -0.050267633 0.01868951 -0.069262624 -0.30628234 -0.13904515 -0.10950986
-0.039871365 0.022568159 0.1249321 -0.10135204 -0.34577876 0.005221826 -0.13561243 -0.16384174
-0.08498318 -0.04684471 0.053922936 -0.31659305 -0.0008594035 -0.0260275 -0.029791445 -0.06023023
-0.11253051 -0.23323785 0.10693134 -0.048912693 0.20795393 -0.06891239 -0.113253795 -0.099217005
-0.37338713 0.42336538 0.2756322 0.69198924 -0.007892401 -0.146634 -0.2441417 -0.112081684
-0.09147274 0.1819411 -0.03738992 0.07918198 -0.097537525 -0.015788509 -0.028132442 0.17078039
-0.23981506 -0.17523304 0.2083872 -0.010513361 -0.2377769 -0.11012929 -0.07618936 -0.09099877
-0.1613486 -0.38481835 -0.5693804 0.02275825 -0.18962362 -0.0883723 -0.014761925 -0.03950438
-0.23608652 -0.12242177 -0.2544019 -0.14245269 -0.36108303 -0.3006241 0.194576 -0.30787247
-0.5356197 -0.020309284 0.33441103 -0.29824817 0.1302682 -0.14462341 0.30618188 -0.21656795
0.28641373 0.10439973 -0.20933396 0.11425898 0.1808466 -0.06345534 -0.18891902 0.12553628
0.05639829 0.26509207 -0.10163047 -0.114214316 -0.15922256 -0.28126195 -0.30406576 -0.7295956
0.0114342095 0.67845297 0.1619754 -0.22972743 -0.0071416353 0.4674221 -0.4551568 -0.22892067
0.2288271 0.03523326 0.08265583 -0.27184328 0.15415673 -0.47835442 -0.5074815 0.095342174
-0.1617747 0.18176024 -0.2830366 -0.31487474 -0.16708018 0.19087508 -0.33632296 0.39025104
-0.18485752 -0.19992934 -0.014201138 0.045597818 0.06948704 -0.3293869 -0.21518542 -0.0779732
0.04364011 -0.1894147 0.0634508 0.4934702 0.27674636 0.5141878 0.68545455 -0.21188433
-0.17269927 -0.050551932 -0.26626945 -0.32493234 -0.28934118 0.1304591 0.078916155 -0.4711962
-0.4553923 0.21890496 0.28917217 -0.062075343 -0.22376904 -0.116193704 0.079601236 -0.07526454
0.13343085 -0.33779773 0.82273906 0.014107322 -0.32974985 0.03417308 0.2899447 0.03246036
-0.2458544 0.21309547 0.0036826446 0.25258616 -0.073404364 -0.43364853 -0.117952965 -0.26271182
-0.25390846 -0.27901605 0.10311539 -0.24984626 0.082001895 -0.31085753 0.27911338 -0.08564733
0.21506032 -0.3970002 0.019115012 0.14032978 -0.16220154 -0.2528355 -0.3291082 -0.5021611
-0.20113325 -0.17729063 0.1316568 0.26222235 -0.15913728 -0.3080469 -0.34130046 0.0066167964
0.4982674 0.10791419 -0.19448128 -0.058343243 0.051015746 -0.17952433 -0.32010838 -0.011204093
-0.062643826 -0.34668565 -0.033470374 -0.44252253 0.31178507 0.17421107 -0.0115842335 -0.077120304
0.10269645 -0.06274218 -0.12412574 0.120990336 0.07992002 0.29167262 -0.23862097 -0.15562089
-0.40653634 0.004124587 -0.12798272 0.051281806 -0.022720207 0.3566135 0.07352726 -0.09570789
-0.27252233 0.327635 -0.3375229 -0.028233824 0.095883474 0.07267469 -0.25011316 -0.025793599
-0.06741956 0.41754603 0.46604016 -0.2815798 0.04166988 -0.33197522 -0.47326684 -0.0011669034
-0.24213073 0.031091588 -0.114253104 -0.26521027 -0.09864444 0.030980768 0.16028643 0.19066067
-0.21532953 -0.38041487 -0.097372256 0.07211284 0.017712275 -0.094611414 -0.25795078 0.090835474

model.2.weight f4 [3, 256]
00000000: 25f8 bd3f 0ad1 34bf 9cf3 6fbe cfa6 ff3e
00000010: 2a92 913e 561f 87be f290 d0bd 0223 dcbe
00000020: bcda bcbe d77f 79bf 4430 413c be9e 83bf
00000030: d985 97c0 5298 dcbe 8be1 523e 8eda e6be
00000040: 8749 5a3e 2e0c 413e d31c f43e e44e a5be
00000050: 150f 753e 29f4 a0be 17ff 4c3d 9357 a9bf
00000060: d65d b3be 3bbc 8dbe 9a7d 4a3e 0fcb 843d
00000070: 9776 1f3f d3f0 a83e 8943 33be 1ba2 7c3d
00000080: 82b5 91be be1c 023f 871c bc3e cd7a d43e
00000090: 5abb cebe 3105 a0be 3fcf 2cbe d01e 7bbe
000000a0: a993 35be 9b65 833d 8e9f 3fbf a65d d3be
000000b0: b690 3dbd f8ca 3e3d 9f63 06c0 4cd7 743e
000000c0: 2975 943e 5e33 893e 48b3 203f 7019 a0be
000000d0: 2b60 81be c979 0a3e 8199 b8be a170 81be
000000e0: 13e0 e43e 4207 f6be e668 88c0 9335 88bf
000000f0: 3abd 773f 65c0 a9bc 4203 17bf 9941 3fbf
00000100: ba0d 29bf 7aa1 40bd 3ba1 c03b aa85 9bbd
00000110: 1687 06be b923 70be 02c1 493e 77ef 4dbf
00000120: 8efd 3bbe 8d84 753f f034 253f a084 d33c
00000130: ddfb b23d ae95 07be 8ee6 3a3e 4d5e e53d
00000140: 7feb 563e c7b6 143e 5364 fcbd e140 223f
00000150: 8faf 253e 4106 f53e b39f 36be 4749 da3c
00000160: 5bd5 94c0 0656 de3e b42a c2be 9928 45be
00000170: 923c a8be b809 05be f756 c4bd dba5 1cbf
00000180: 0111 6bbe e6d4 9f3e 04a8 96be dc12 90be
00000190: bf99 d13e 9a01 853e d833 94be 0c90 b83d
000001a0: b340 183e 2e91 96bf 193b 953e c5ad aa3c
000001b0: 2777 62be a444 3f3f 9c80 d5be b0d4 0e3f
000001c0: 639f 30be 9a33 393e b5cc 08bf b412 0cbf
000001d0: 92f1 3c3d b627 603f 032a 50bf b6bb 173f
000001e0: b930 393e 6f56 b93e f8b7 913e e778 f8bf
000001f0: e5c0 b0be 3128 f8be 6e58 7fbe ddcc 5d3d
00000200: 59a3 2bc0 df9e 433e a148 983d 933b 163f
00000210: e494 27c0 b4c4 cb3e 5ccd 1a3f 50ed 1c3f
00000220: becc efbc c895 4ebe 0319 66be 9de6 c73f
00000230: 5c48 86bf 4171 313e 8ad8 483e 1716 18be
00000240: 47fd 383e 62ff 493e 3831 2ac0 21ba 96bf
00000250: d045 aa3e 34a4 953d ef4e d33e c012 103e
00000260: 437e 01bf b579 67be 0127 963e 619a 1c3f
00000270: 2c1c 3a3f 01bc 2a3a 6d22 063f c834 c63e
00000280: cf3b dc3b 40ac 1b3e 9dfe ae3c 6046 ba3e
00000290: 9414 1bbe a24a 58bf e083 27be b7d7 bd3e
000002a0: 22b2 54bf 5299 e6bd d00d 8e3e a353 86bf
000002b0: e516 4fbf e6d6 a8be 59fd 703e 08b0 36c0
000002c0: ffc8 5e3d 367f b6be 73eb 7e3f a8d3 b2bf
000002d0: e982 d63d 5541 0f3f c74d 12bf f59b fcbf
000002e0: 6a64 8cbc 3e74 d03c a275 2cbd 65bf 413f
000002f0: 1e76 90be 9da1 60bc 14f1 e1bc 6026 d5bf
00000300: 77e9 773e 94c8 16be c13b 893e e253 303f
00000310: 9e9c 403e 3f50 2b3f e753 2ac0 9716 243f
00000320: 5ceb 1abf d641 5cbf 46d5 0f3f 514a 04bf
00000330: f10c c23d 406e a33e 6107 7ebb 8ead 213f
00000340: 06af d83e 2dfa 1abe c0e3 713d 33ef 783e
00000350: c9ae b5bf 7d8a 1a3f 0997 dcbb 2b6c fcbc
00000360: 70d4 0dbd 49f1 8bbe 9870 1d3f e929 043f
00000370: a122 8ebc 58ba e03e f11d 1a3d 629b ac3b
00000380: bc6b 8ebe 9243 003f 8852 afbf 545b 903e
00000390: b2dd a1bf 52a1 3c3e 170d 41bf 7d7a c83e
000003a0: cd45 113d a762 993e ca78 ff3e 94aa fa3e
000003b0: c8e5 45be 6c51 74bf 7c9d b6be bbde ba3d
000003c0: 7d59 92bd d935 813e de18 60bf 9b42 c3be
000003d0: 4c99 01bf 601e 5c3e b7c0 b23e 0e60 083f
000003e0: 78f2 6fbc 66dc 0dbf 578b 483d 5746 903c
000003f0: e987 033f eb66 dfbd 4362 25be d337 883e
1.4841353 -0.7063147 -0.23432773 0.49931952 0.28431827 -0.26391095 -0.10183896 -0.4299546
-0.3688563 -0.97460693 0.011791293 -1.0282819 -4.735089 -0.4308496 0.2059385 -0.4508862
0.21317111 0.18852302 0.4767824 -0.3228675 0.23931535 -0.3143628 0.05004796 -1.322985
-0.3503253 -0.2768267 0.19774476 0.06484043 0.6229033 0.32996234 -0.17506231 0.061678033
-0.28458792 0.5082511 0.36740515 0.4149994 -0.40377313 -0.3125396 -0.16875933 -0.24523473
-0.17732109 0.06415864 -0.74852836 -0.41282386 -0.046280585 0.046580285 -2.0998304 0.23910254
0.28995636 0.26797003 0.6277356 -0.31269407 -0.25268683 0.1352302 -0.36054614 -0.25281242
0.44702205 -0.48052412 -4.262805 -1.064135 0.9677311 -0.020721624 -0.58989346 -0.7470947
-0.6603657 -0.047028996 0.005878595 -0.07593854 -0.13137469 -0.23451127 0.19702533 -0.8044352
-0.18358442 0.9590538 0.645339 0.025820076 0.08739445 -0.13240692 0.18252012 0.11199627
0.20988272 0.14522849 -0.12323823 0.6338025 0.16180252 0.47856334 -0.17834358 0.02664627
-4.6510444 0.43425006 -0.37923205 -0.19253768 -0.3285871 -0.12991989 -0.095869 -0.61190575
-0.22955705 0.31217116 -0.2942506 -0.2813939 0.4093761 0.25977784 -0.28945804 0.0901185
0.14868431 -1.1763055 0.2914665 0.020834813 -0.22115766 0.7471411 -0.41699684 0.55793285
-0.17248301 0.1808609 -0.5343736 -0.5471604 0.046128817 0.87560594 -0.81314105 0.592708
0.18084992 0.36198756 0.2846067 -1.9411896 -0.34522167 -0.48468164 -0.24936077 0.05415045
-2.681845 0.19103573 0.07435728 0.58684653 -2.6184626 0.3979851 0.60469604 0.6129961
-0.029272433 -0.20174325 -0.22470479 1.5617253 -1.0490832 0.17328359 0.19613853 -0.14852177
0.18065368 0.19726327 -2.659254 -1.1775552 0.33256388 0.0730671 0.4127116 0.14069653
-0.50583285 -0.22605021 0.29326633 0.61173064 0.72699237 0.0006513 0.5239628 0.38712144
0.006720997 0.15202427 0.021361643 0.36381817 -0.15144569 -0.8448888 -0.163589 0.3707864
-0.8308431 -0.11259712 0.27744913 -1.0494274 -0.8089431 -0.32976454 0.23534144 -2.854494
0.054390904 -0.3564393 0.99578017 -1.3970842 0.10474188 0.55959064 -0.5714993 -1.9735094
-0.017137725 0.025446054 -0.04210437 0.7568267 -0.28215116 -0.013710407 -0.027580775 -1.6652336
0.24210154 -0.14724952 0.268034 0.68877995 0.18809745 0.6691932 -2.661371 0.6409697
-0.6051538 -0.8603796 0.56184804 -0.516759 0.094751246 0.31920052 -0.0038761722 0.6315545
0.42321032 -0.15134497 0.05905509 0.24309997 -1.4193965 0.60367566 -0.006731872 -0.030813297
-0.034626424 -0.27332523 0.6149993 0.5162645 -0.017350497 0.4389217 0.03762621 0.0052675465
-0.2781657 0.50103104 -1.3697062 0.28194678 -1.2645781 0.18420914 -0.754106 0.3915595
0.035466958 0.29958078 0.49896842 0.48958266 -0.19325936 -0.9543674 -0.35667026 0.09124514
-0.07145975 0.25236395 -0.87537944 -0.38136753 -0.5062454 0.21495962 0.34912655 0.5327157
-0.014645211 -0.55414426 0.04896101 0.017611666 0.5137926 -0.10908302 -0.16150765 0.2660509

model.2.bias f4 [3]
00000000: fb34 fc3d b6fd 1d3d 5d2c c13b
0.12314793 0.038572036 0.005895181
